PINN_for_PDE/modelLSTM.pth (torch, 609587 bytes, 14 tensors)

lstm.weight_ih_l0 f4 [200, 400]
000000 61 f3 b3 3c 6b 85 ca b9 46 af 2e be 74 7f a5 3c
       0.021966638 -0.00038627847 -0.17059049 0.020202376
000010 74 99 58 3c 77 8e 8e 3d 10 e3 7e bb d7 6b 2f bd
       0.01322018 0.06960767 -0.0038892664 -0.042827453
000020 18 e6 00 bd 6d 8c 2f 3c 45 ea ab bd 77 00 c9 3d
       -0.031469434 0.010714632 -0.08394293 0.09814542
000030 81 b0 12 3e b8 78 2f 3b e0 6c a6 3c 95 d8 72 3d
       0.14325143 0.0026774835 0.020315588 0.05928858
000040 f3 a3 04 bc c9 f3 fd bd db b6 d4 3c 94 d2 75 bd
       -0.008095729 -0.12400014 0.025966099 -0.060015276
000050 b3 d1 c3 3c ac 22 8f 3d 88 ae 3a bb 0e 4d af bc
       0.023903703 0.06989035 -0.0028485376 -0.021399047
000060 de ef 9e bd e3 b8 ce 3d 8b fc 74 3c 65 4b cc 3c
       -0.07760595 0.10093858 0.014952789 0.024938295
000070 53 e3 8f 3d ad cd a4 bd 49 ea e3 3d a5 d3 ad 3c
       0.070257805 -0.08047042 0.11128671 0.021219084
000080 3a b6 ea 3d 3a 00 5c 3c 28 74 3e 3c bb 56 06 bd
       0.11460538 0.013427788 0.0116243735 -0.032797556
000090 23 55 04 bb 73 29 1a 3d 91 fd 83 3d 1c ca 50 bd
       -0.0020192347 0.037637185 0.06444848 -0.050973997
0000a0 2b 33 d9 3c 7b 02 4b bd bc db 44 bc fe 82 84 3d
       0.026513657 -0.049562912 -0.012015279 0.06470297
0000b0 1c 39 23 bb c0 25 a0 3b 45 e1 8e 3d f7 77 7d 3d
       -0.0024905866 0.0048873127 0.069765605 0.061881986
0000c0 96 6e 90 3c 19 b8 07 bd f2 f7 da bc 1c 84 f2 bb
       0.017630856 -0.033134554 -0.026729558 -0.0074010026
0000d0 1e 5f 96 3c 1f 4e 12 bb e4 44 05 3d d6 a8 12 3b
       0.018355902 -0.0022324396 0.032536402 0.0022378466
0000e0 0b 37 96 3a 1b be 0d 3d 8e 03 b4 3d ca 33 1f be
       0.0011460496 0.034605127 0.087897405 -0.155471
0000f0 e3 82 5a bd 12 73 a7 bd 62 1c d4 3d c8 9f 6e bc
       -0.05334748 -0.08176245 0.10356976 -0.014564462
000100 99 93 00 3d db bf 07 bd 55 e9 85 3c 28 fb 87 3c
       0.03139076 -0.033141952 0.016346613 0.016599253
000110 e7 cc 64 3d 5d 91 f5 bb e3 f8 e2 3d 53 c8 bd bb
       0.055859473 -0.0074941353 0.110826276 -0.005791703
000120 70 b9 43 bd 99 11 1b bc 47 aa 27 3d eb 0a e8 bc
       -0.04778427 -0.009464645 0.040933874 -0.028325519
000130 f8 c3 b1 3d 22 0e 34 bd 94 15 23 3d 85 c1 29 3c
       0.08679956 -0.04395879 0.0398155 0.01036108
000140 42 03 64 bd 10 30 c5 3c 05 8b 34 ba e9 f1 6c bd
       -0.05566717 0.02407077 -0.00068871706 -0.05784789
000150 ef 37 82 bd b0 35 89 bc 8b 00 8b bc de d9 61 bd
       -0.06358325 -0.016749233 -0.016968032 -0.055139415
000160 53 5c 6e bb 9f d9 58 3d fa c5 61 bd de 59 74 3d
       -0.0036370947 0.052941915 -0.055120446 0.059656017
000170 31 1c e3 3d db b8 27 3d e9 08 e5 3d 8b bb c5 bd
       0.110893615 0.040947776 0.1118334 -0.096549116
000180 d5 67 6e bd 18 a8 54 3d 20 fe 83 3b 02 5e 22 bd
       -0.05820449 0.05191812 0.004028097 -0.039640434
000190 37 96 10 bd cf c5 18 3d d4 2e cb bc 3a 19 87 bd
       -0.035299506 0.03729802 -0.024802603 -0.065966085
0001a0 a8 96 eb 3c 34 35 34 3d 6d 28 52 be ff e3 b1 bc
       0.028758362 0.04399605 -0.20523234 -0.021715162
0001b0 8e d3 bb bc 2f 58 29 3c 2a ba 65 bc 70 7d bd bc
       -0.022928026 0.010335966 -0.014021436 -0.023131102
0001c0 bf ea 62 bd 30 0f ef 3b 3a 70 69 bd e1 ac c9 3c
       -0.055399653 0.0072955117 -0.056991793 0.024618568
0001d0 af c9 92 3d f8 f4 d4 3c b7 7f dc ba 03 4b a6 3c
       0.07167374 0.025995716 -0.001682273 0.02029944
0001e0 19 36 94 3c f6 8a 55 3e d5 f6 04 3d 8e 84 de bd
       0.018092202 0.2085379 0.03246196 -0.108651266
0001f0 3c 7d 19 3d b3 61 74 3d c0 07 f9 bb f1 4d 6c bd
       0.03747295 0.059663486 -0.007599801 -0.05769152
000200 49 15 fe bd c3 40 6e bd 1d 3d 89 bc 2a 82 76 bd
       -0.124064036 -0.05816723 -0.016752774 -0.060182728
000210 6f 7a 48 3c 6b 37 cc 3d 33 88 df 3d 50 42 12 be
       0.012236222 0.09971508 0.1091465 -0.14283109
000220 29 c7 7c 3c 9b 39 a6 3c f3 49 f5 3b 45 c7 15 3d
       0.015428343 0.02029114 0.007485622 0.03656699
000230 17 44 0c 3c 61 7d 99 3b 2b d4 1c bd 93 3e 00 3c
       0.008561156 0.004684136 -0.038288277 0.007827419
000240 ae dc 68 3d d8 c3 3b 3b 69 31 80 bc 25 0d 1b bb
       0.05685108 0.0028650668 -0.01564856 -0.0023658958
000250 ca 98 0e bc 3d 69 b2 3b 76 bc 79 3d b4 ae 2c bc
       -0.00870342 0.0054446743 0.060970746 -0.010539699
000260 60 60 76 bd 83 8b b4 3c 51 12 94 3d b2 9b 05 3e
       -0.060150504 0.02203918 0.07230056 0.13047674
000270 68 bd 06 bd c2 3b ca 3c d6 74 00 be 18 ad e1 3c
       -0.032895476 0.024686698 -0.1254457 0.027548358
000280 d6 dc b3 3d 79 f6 c8 3b 21 d2 b1 3c 79 39 18 bd
       0.087823555 0.0061328975 0.021706643 -0.037164185
000290 0b 01 86 bb ab 92 7c 3d a9 6a 34 bd 03 55 45 bd
       -0.00408948 0.06166331 -0.04404703 -0.048176777
0002a0 5d d1 50 bd b2 e7 71 3b e4 39 a7 3b 1b 58 01 bd
       -0.050980914 0.0036911783 0.0051033366 -0.031578165
0002b0 4a 87 0b 3d 36 a6 18 bb 96 53 7d 3d 80 07 45 3c
       0.03406457 -0.0023292429 0.061847292 0.012025714
0002c0 bf 38 0e bd 89 d7 27 3d 59 d1 80 3d 12 96 bc 3b
       -0.034722086 0.040977035 0.0628993 0.0057551945
0002d0 da 5c 87 3c f9 53 92 3c f6 f8 c6 bd 42 e3 2f 3c
       0.016523767 0.017862307 -0.09715454 0.010735335
0002e0 84 71 99 bc ef 66 71 bc 14 8e c1 3c f0 69 90 bb
       -0.018730886 -0.014734014 0.023627318 -0.00440716
0002f0 82 9b 80 bd 04 ba 61 bc 7a f5 9c 3d fc e5 c9 bd
       -0.06279661 -0.01377726 0.076640084 -0.09858319
000300 21 c3 9a bd 84 82 03 3b de d8 aa 3c 80 64 ec bb
       -0.07556749 0.0020066807 0.020855363 -0.007214129
000310 af 91 a4 bd 3e 05 8c bd eb b0 89 3c 7c 2f de bd
       -0.080355994 -0.06836937 0.016807994 -0.10848901
000320 e1 0a 02 3c c1 4c 05 3e c6 a7 0d bd 17 00 9d bb
       0.007937164 0.1301756 -0.03458383 -0.0047912705
000330 c5 4c 79 bc 13 39 06 3d 49 6f 32 bc b6 e8 15 bd
       -0.015216057 0.032769274 -0.01089079 -0.036598884
000340 f4 5c b8 3d 83 52 16 bc 74 18 0c bc b0 41 68 bd
       0.090021044 -0.009174946 -0.008550752 -0.05670327
000350 35 fc c9 bd 53 13 5f 3c 9b 35 bb 3d 9e dd 6b 3d
       -0.09862558 0.013615447 0.09141084 0.057584397
000360 32 de 40 3d 59 25 ce 3c e2 61 8d 3c 38 8b 01 be
       0.047086902 0.025164293 0.017258588 -0.12650764
000370 81 d5 3a 3d 96 ba 36 3d ef da d4 3c 73 d2 70 3d
       0.04561377 0.044611536 0.025983302 0.05879445
000380 eb de 98 bc ff 57 a8 3c 52 30 34 3d e1 85 d3 bc
       -0.018660983 0.020549772 0.043991394 -0.025820674
000390 b9 95 9d 3d 0e df 8e bd d9 8d fa 3c b5 18 19 bd
       0.07694573 -0.06976138 0.030585216 -0.037377078
0003a0 24 d8 a6 bd fe 4a d6 bc 63 7f b0 bd 76 17 65 bc
       -0.08146694 -0.026158806 -0.08618047 -0.013982644
0003b0 d7 8e 2e be 07 11 6e bc 5b 8c 75 3b 8e a1 a1 bc
       -0.17046677 -0.014530427 0.0037467692 -0.019730356
0003c0 50 28 63 bd a2 f6 2e bd 4b 96 dc 3d 16 1d 90 bb
       -0.055458367 -0.042715676 0.107708536 -0.0043979986
0003d0 42 67 c6 3d 9d b2 ed 3c 2c d7 42 3d f4 46 ce 3c
       0.096876636 0.029015834 0.047568485 0.025180317
0003e0 d1 33 d4 3c c7 5f 3f 3d e0 fd dd 3d 22 87 15 bd
       0.025903614 0.0467222 0.108394384 -0.036505826
0003f0 b9 c6 2f bd 48 78 87 3d 52 3a c7 3d 8c 39 39 bd
       -0.042914126 0.06614739 0.097279206 -0.045220897

lstm.weight_hh_l0 f4 [200, 50]
000000 26 fe c3 bc 49 00 77 bc 2d 46 9b 3d 52 ec f2 3d
       -0.023924898 -0.015075752 0.07581744 0.11861481
000010 5d 9e 6b 3d da aa b5 bc 0b 27 0b be b6 be 21 bd
       0.057524074 -0.022176195 -0.13589112 -0.039488517
000020 04 64 44 bd b9 7a 3e be a6 44 f5 bc 1b ba e7 3d
       -0.047946945 -0.18601502 -0.02993996 0.11314794
000030 31 d5 da bd d3 13 08 bc dc 98 42 bd a8 d8 55 3d
       -0.10685194 -0.008305508 -0.04750906 0.052208573
000040 bc be 22 bd f3 d5 71 3c c5 9e 9f bb 2c 87 2d bc
       -0.03973268 0.014760482 -0.0048712217 -0.0105913095
000050 8e dc d0 bc c5 5a 9a 3a 2c e4 f2 3c 9f ba a4 bd
       -0.025495794 0.0011776319 0.029649816 -0.08043408
000060 e2 ff e6 3d b1 0c 9e 3c c8 fb 11 bd 91 85 23 be
       0.112792745 0.019293161 -0.035640508 -0.1596892
000070 32 e5 aa 3d b7 3c 23 be ac bd 60 3d a1 54 5d 3d
       0.08344497 -0.1594113 0.054868385 0.054035787
000080 ef f3 03 be 29 ae 9d bd 79 e7 1f be b2 3f 41 bd
       -0.12886022 -0.07699234 -0.15615644 -0.047179885
000090 1c d5 fd bd 9f 43 05 bd 5f f1 01 bd da e8 07 3d
       -0.12394163 -0.03253519 -0.03172433 0.03318105
0000a0 77 d1 f3 bc ae 02 b4 3c 6c d1 16 bd 53 6b 41 be
       -0.029762967 0.021973934 -0.036820814 -0.18888597
0000b0 59 c3 bf 3d da 78 09 be 6c 67 a1 bd 89 e4 05 be
       0.093634315 -0.13425007 -0.07881054 -0.1307546
0000c0 ff af 98 bd cb 6d 45 bd d7 fa 14 3d b0 9e 43 bc
       -0.074554436 -0.04820041 0.036372032 -0.0119396895
0000d0 a0 5a 9a 3d a2 df 89 3d 1f 5c 2f 3e 1d 8e 89 bd
       0.075368166 0.06732108 0.17124985 -0.06716559
0000e0 99 37 f2 3d 8c 23 ea 3d f3 11 9e bc da f8 7a 3c
       0.11827011 0.11432561 -0.019295668 0.01531812
0000f0 63 84 7a 3c a1 64 a8 3c 81 b0 3e 3c 81 7f 6c 3d
       0.0152903525 0.020555796 0.0116387615 0.057738785
000100 ec 77 f6 3d e1 5f 12 3d bf ee 01 3d 71 a7 0b be
       0.12034592 0.03573597 0.031721827 -0.13638093
000110 d5 2a ee 3d 81 fd d5 bd a9 b5 be bd 7a db 7c 3c
       0.11629263 -0.10448743 -0.09311993 0.015433187
000120 40 e1 65 bd 79 2b 1c bc c4 65 2d bd 4d 51 de 3b
       -0.05612302 -0.009531849 -0.04233338 0.006784594
000130 74 1b 22 3d 9f 78 87 bc 3b 78 d0 bc b7 e6 f6 bd
       0.039576963 -0.016537009 -0.025447955 -0.12055724
000140 59 10 e3 3d bb cb 42 bd a4 62 ac 3d 62 c8 06 be
       0.110871024 -0.047557574 0.08417252 -0.13162377
000150 9d af 92 3d 11 ba 60 3d 5a 1a 57 bd 8f 19 0e 3a
       0.07162402 0.054864947 -0.052515365 0.00054206786
000160 d8 c5 30 bd 8c 90 ab 3c 1f ae a9 3d 88 1f ca 3c
       -0.04315743 0.020942949 0.08285164 0.024673238
000170 07 a7 a9 3c e7 dd dc 3d 11 00 21 3e d1 2c e9 bc
       0.020709528 0.10784512 0.15722682 -0.028463753
000180 bd ac e4 3d 1e 0f f4 bc 80 17 08 3e cf 54 94 bb
       0.1116576 -0.029792365 0.13290215 -0.0045267115
000190 80 6e c6 bc 68 05 e1 bd b9 0c d1 ba 17 fa c1 3d
       -0.024222612 -0.10987359 -0.0015949226 0.09471529
0001a0 5a e3 85 bd 42 d4 6f 3d ac 07 fa 3d d5 9c 8c bc
       -0.065375045 0.058552034 0.122084945 -0.017164627
0001b0 61 92 51 3d 73 e6 ca 3d 6f 4b 27 bd 43 3c 3d bd
       0.05116499 0.09907236 -0.040843423 -0.04620005
0001c0 3d ba 55 3d 70 97 0d be 6c b7 35 bd 6a 69 82 bd
       0.052179564 -0.138273 -0.044364378 -0.063677624
0001d0 c8 5d 91 3d 18 78 ba 3c 7e 6e 58 3c d7 ed 0a be
       0.070979655 0.022762343 0.013209937 -0.13567291
0001e0 8c c5 02 3d a6 bf b8 3c 6b cf 3e bc 07 cc 66 bc
       0.031926677 0.022552323 -0.011646132 -0.01408673
0001f0 7a 56 ad 3d 57 34 96 bd 7c b0 cb 3d d4 d3 df 3d
       0.0846376 -0.07334202 0.09945771 0.10929075
000200 b7 59 66 bd cb 3f b3 3c a5 d3 84 bd 21 c6 80 bd
       -0.056237902 0.021881005 -0.064856805 -0.0628779
000210 ba be 1d bd e5 3b 88 3c 50 7a 14 be f1 a0 28 be
       -0.03851197 0.016630122 -0.14499784 -0.16467644
000220 fa f5 1e 3e 8d 9f 8d 3d f8 1d 96 3e 97 5e 5b 3e
       0.1552352 0.069151975 0.2931974 0.21422802
000230 01 5f 46 bd 74 41 ff bc 1d b0 09 3d 37 f4 07 3a
       -0.048430447 -0.03115914 0.03361522 0.0005186232
000240 35 3c 0f bd 65 7b 85 3e 4b 76 fe bc 52 cb 23 bd
       -0.034969527 0.26070705 -0.031062266 -0.039988823
000250 10 a3 28 3e 60 be 1d be d9 f7 07 be 7f 06 60 be
       0.16468453 -0.15404654 -0.1327814 -0.21877478
000260 cc d0 61 bd b8 57 4f bb 51 02 2b bd 1e bb c2 bd
       -0.055130765 -0.0031637978 -0.041750256 -0.09508346
000270 fc be 9d bd b2 4f 12 3c 9a 66 75 3d e4 b3 16 be
       -0.07702443 0.008930134 0.0599123 -0.1471706
000280 95 1b 0b bd d7 9b ab 3d 27 42 f9 3d 44 63 c6 bc
       -0.03396185 0.083793335 0.12170821 -0.024217255
000290 52 dd e1 bc c6 e6 e0 3b 42 ca 9b bd 8d 5b ec bc
       -0.027571354 0.006863448 -0.07606937 -0.028852249
0002a0 a8 29 5e 3d e8 e6 3c be 3d 12 9b bd b9 40 f0 bd
       0.054238945 -0.18447459 -0.07571838 -0.11731095
0002b0 f4 78 30 be 11 23 d1 3d a7 01 28 be 99 d3 a5 bc
       -0.1723364 0.102117665 -0.1640688 -0.0202425
0002c0 46 69 3d 3e 02 3e 95 bd 9d fc ef bd b7 b2 ca bd
       0.1849719 -0.07287218 -0.11718104 -0.098973684
0002d0 68 8e 52 bb 0b a7 8a bd 5d e3 13 3e f9 87 4a 3c
       -0.0032128338 -0.06770142 0.14442201 0.01236152
0002e0 7f c9 ce bd 31 71 91 3d 36 33 a3 3c 71 f8 cf bd
       -0.10097026 0.07101668 0.01992188 -0.10154808
0002f0 f7 f0 0a bd db f5 33 be f4 9d a4 bc 1c f8 3a 3c
       -0.03392121 -0.17574255 -0.02009485 0.011411693
000300 11 60 95 3c 48 3f 54 3c 91 61 90 bd e9 dd 9d 3c
       0.018234285 0.012954541 -0.07049859 0.019270854
000310 81 3a f5 bd 09 92 14 be 2c 8e 81 bd f0 d6 8b bd
       -0.11974049 -0.14508833 -0.06325945 -0.068281054
000320 39 cc 07 be e0 0b 55 bd 70 01 1e 3e 5f 52 b8 bd
       -0.13261499 -0.052013278 0.15430236 -0.09000086
000330 e6 b2 b8 3c de c6 65 3d 1c df 57 bc 96 ba 61 3d
       0.022546243 0.056097858 -0.013175752 0.055109583
000340 e1 5c 09 be af 9f d0 bd 8b d3 c0 3d 3e 3c 30 3c
       -0.13414337 -0.10186707 0.094153486 0.01075655
000350 76 65 02 bd ac 5f da 3d cf a3 97 3d b4 d3 35 be
       -0.031835042 0.10662779 0.07404291 -0.1775654
000360 73 ee b0 3c e4 f2 32 3e b2 f2 c9 bd ca 7f b2 3d
       0.021598076 0.17475468 -0.098607436 0.0871578
000370 1e 77 fc 3d ac 85 91 bd df 2a 82 bd 0e fc ca bb
       0.12327407 -0.07105574 -0.06355833 -0.006194598
000380 d8 d9 7f 3c 7a 4b d1 3d b7 1f 2d bd 44 40 be 3b
       0.015615903 0.10219474 -0.042266574 0.005806001
000390 ac 38 10 be 59 12 59 be fe c5 29 3e be e6 1d bd
       -0.14084119 -0.21198405 0.16579434 -0.03855013
0003a0 06 6f 69 3d 90 d1 84 3d 50 fc 5a bd f0 4d c3 bc
       0.056990646 0.064852834 -0.05346328 -0.023840874
0003b0 92 68 9f 3c 81 75 22 be d1 7b 8d 3d c0 05 49 3d
       0.019459043 -0.15865137 0.06908382 0.04907775
0003c0 ab ef 04 3e 6f 2d fd 3d d4 c3 c9 3d af b9 68 bd
       0.12982051 0.123621814 0.098518044 -0.056817707
0003d0 c3 a6 2c bd 6e da 15 3e d7 7f 0a 3d 18 3b 69 bd
       -0.042151224 0.14634106 0.033813324 -0.05694112
0003e0 d4 34 87 3d c2 96 76 bb 53 55 6c bc ed 89 a0 bd
       0.06601873 -0.003762648 -0.01442464 -0.07838807
0003f0 2e 21 53 bd 3d 12 b8 bc 4a 9a c1 3d 26 c1 b9 bc
       -0.051545314 -0.022469634 0.094532564 -0.022675108

lstm.bias_ih_l0 f4 [200]
000000 da 71 36 3b cf e5 ec 3b e2 ed 2d 3c ea 6c 2f 3c
       0.0027838857 0.0072295438 0.010615798 0.0107071195
000010 f1 88 93 3c 18 2a 31 3b 55 97 a6 bb ef 2d 0c bb
       0.018009635 0.0027033146 -0.005083958 -0.0021389683
000020 53 00 a1 bb 9a 2c 03 bc e8 93 ed ba 96 ad 5b 3b
       -0.0049133687 -0.008006239 -0.0018125745 0.0033520213
000030 11 c8 00 bc 9a 76 c5 3b c8 2b e8 3c f4 b2 cd 3b
       -0.0078602 0.0060261013 0.028341189 0.0062774364
000040 f9 ac 03 bc e8 1b f2 3b 0b 0f e0 bb 09 ef 1d 3c
       -0.008036845 0.0073885806 -0.0068377308 0.00963951
000050 c1 d0 f2 3b 51 bd 0a 3c 0c a3 2b 3b 9b fc d9 3b
       0.0074101393 0.008467988 0.0026189713 0.0066524274
000060 eb 28 03 3d d0 9c 60 3d fb 2a ff 3a 80 dc c1 bb
       0.032021444 0.054837048 0.0019467765 -0.005916178
000070 5b 9e 88 bb e7 2a d6 39 08 c2 a3 39 43 e9 c2 3b
       -0.004169268 0.00040849225 0.00031234347 0.005948217
000080 ef bf 42 3d 21 74 8a bb f1 5d 39 3b 73 8f aa 3c
       0.047546323 -0.0042252694 0.0028284753 0.020820355
000090 77 f4 e7 ba 2a 48 e4 bb 15 78 39 3a 57 ef 46 3b
       -0.0017696758 -0.0069666104 0.00070750836 0.003035506
0000a0 3c 8e ec 3b 7c 43 ed 3b 05 d6 da bb 7c 60 04 ba
       0.007219104 0.007240711 -0.006678345 -0.00050497777
0000b0 78 e6 39 3c da 15 e1 ba b0 c3 a0 3c f2 70 49 3b
       0.011346452 -0.001717265 0.019624561 0.0030737487
0000c0 61 71 14 3c f6 fa 04 3b c1 0b 87 bb 3f d3 b4 3c
       0.009060235 0.0020291186 -0.004121274 0.022073386
0000d0 07 ae f6 bc 1c 94 82 3c f9 b3 c4 3c 2b 18 af 3b
       -0.03011228 0.015939765 0.024011599 0.005343457
0000e0 5e f0 19 bc 4d e4 29 bd 2d eb 09 bc 5a e8 76 bc
       -0.009395687 -0.04147749 -0.008417887 -0.015070045
0000f0 ad 66 c3 bb db f7 16 3c 30 7d 0e bc 89 16 82 3c
       -0.0059631676 0.009214367 -0.008696839 0.015879886
000100 4a 1f 54 3c 60 86 23 3c 56 99 19 bc 78 2b c9 3b
       0.012946913 0.009980768 -0.009374937 0.006139215
000110 10 d2 1b bc b0 ac 88 3c 1b 2e d0 3b 5f 2d 56 bc
       -0.009510532 0.016683906 0.0063531525 -0.013072341
000120 17 5a 0e 3c b1 5c dc 3c 65 cb 07 3d 32 a2 86 3d
       0.008688471 0.026899667 0.033152957 0.06573905
000130 a7 cb 71 bb ee bc 9a bc 56 4d 68 3c 34 2d 02 3c
       -0.0036895068 -0.018888917 0.014178595 0.007945348
000140 d5 70 54 3c ef 8e a3 3c 56 a2 64 3d 3e af b0 bb
       0.012966354 0.019965617 0.055818878 -0.0053919842
000150 70 54 44 3c cb e3 c7 3c c5 cc 38 bb 84 a6 cf bb
       0.011983022 0.024400612 -0.0028198224 -0.006336989
000160 df 51 08 3b f0 b2 40 3b 16 d2 a2 3c 8e a3 c3 3c
       0.0020800752 0.002940353 0.019875567 0.0238817
000170 ac 8f 03 bc d2 70 ed ba d0 21 c7 bb bb f9 1d 3b
       -0.0080298595 -0.0018115288 -0.006077029 0.002410515
000180 13 a1 65 3c d0 49 cf 3b 41 38 2e 3c 1b b4 f2 3b
       0.014015454 0.006325938 0.010633529 0.007406724
000190 d6 15 81 bc 2d fe f3 bc 3e da 48 bd a8 f8 34 3c
       -0.015757482 -0.029784286 -0.049036257 0.011045612
0001a0 67 55 11 3c 77 34 e5 b9 f6 05 54 39 79 99 a5 3c
       0.008870459 -0.00043717373 0.00020220116 0.020214783
0001b0 b2 d6 94 bb d9 32 41 bc cd ba 0d 3b 45 50 8a 3c
       -0.0045421952 -0.011791908 0.0021626235 0.016883979
0001c0 81 7a 86 3b 83 17 cc bb 51 d7 64 3c 28 8e 1a 3b
       0.004103959 -0.0062283888 0.013967351 0.0023583267
0001d0 41 1a 09 3c b2 3c 7f 3c 08 f1 01 ba 8a 54 82 bc
       0.008368076 0.015578436 -0.0004956876 -0.015909452
0001e0 ff 36 d8 bb ec fc db bc 07 3e 05 bc 4e d1 83 3b
       -0.006598353 -0.026854001 -0.008132464 0.004022754
0001f0 ce d5 bb 3c 74 10 c0 3a 5a c9 c9 bb 1a 69 85 bc
       0.022929098 0.0014653341 -0.006158036 -0.016285468
000200 fb 53 1b 3c e8 d9 1c bb b4 41 98 bc 5a 7a a5 bc
       0.009480472 -0.0023933593 -0.018586017 -0.020199943
000210 21 c1 d7 3c eb 7b 3f 3c 86 64 6a bc 22 48 ff 3a
       0.026337208 0.011687259 -0.014306193 0.0019476453
000220 ce 75 32 3c a2 e7 3e bc 7a 58 85 3c be c1 96 3b
       0.010892345 -0.011651905 0.01627754 0.0046007326
000230 13 11 59 3c 7a 5d 3a bc 01 b2 8d 3b 5f 7c 1a 3c
       0.0132487 -0.011374826 0.0043241982 0.009429066
000240 fc 0c 42 3c 0e 4a 8d bb be 5f 51 bc e6 f8 f2 bb
       0.011843916 -0.0043118065 -0.012779174 -0.007414925
000250 1b 73 2f 3c 7f 85 8e bb eb e5 9b bb 29 df a3 3c
       0.010708596 -0.00434941 -0.004757633 0.020003872
000260 4d 13 fb 3b 08 cb 94 3c b8 88 af 3c c0 3f 53 3a
       0.007662213 0.01816322 0.021427497 0.0008058511
000270 85 4f b2 bb fa 5b 62 bb 9d d4 f9 ba d3 b5 e3 bb
       -0.0054416084 -0.0034539686 -0.0019060556 -0.0069491654
000280 2c a5 d7 bb bf 8c 0d 3c c5 4f d4 bb 9a 07 89 3c
       -0.0065809693 0.0086395135 -0.006479236 0.016727258
000290 44 2f 0e 3d 4c be 0e 3d 17 33 0e bc dd 0d b5 3c
       0.034713045 0.03484945 -0.008679173 0.022101337
0002a0 0d 15 f1 bb 4a ee b8 3c 70 f7 94 bb 14 5a 27 3c
       -0.007357246 0.022574563 -0.0045460984 0.010214347
0002b0 a6 c3 16 3c 60 e9 92 3b ab 8d 8f 3d d4 b1 9a 3d
       0.00920192 0.004483387 0.07009443 0.07553449
0002c0 da 8d ad ba 7d 83 09 bc dd f0 44 3d ab 1e da 3c
       -0.0013241128 -0.008393166 0.048081268 0.026625952
0002d0 9d b1 ad 3c a2 e6 bd 3c 3f 0c 5e 3d 5f 27 42 bb
       0.021202857 0.023181263 0.054210898 -0.0029625518
0002e0 ef 10 a2 3a 39 6a b2 3c db 9e f8 ba 67 d9 fa bb
       0.0012364666 0.021779167 -0.0018968241 -0.007655311
0002f0 7c a4 06 bc 71 e2 a5 3a 9d 0c c1 3c 7d fb 5b 3c
       -0.008217927 0.0012655986 0.023565585 0.013426659
000300 8b 6f e2 bb 8e e6 2c ba 2b ca 5b 3c 87 69 04 ba
       -0.0069102696 -0.00065956346 0.0134149 -0.0005051125
000310 af 5a c3 3c 01 0c 97 bb 93 02 54 3c ed ed 71 3c
       0.023846952 -0.0046095853 0.012940067 0.014766199

lstm.bias_hh_l0 f4 [200]
000000 da 71 36 3b cf e5 ec 3b e2 ed 2d 3c ea 6c 2f 3c
       0.0027838857 0.0072295438 0.010615798 0.0107071195
000010 f1 88 93 3c 18 2a 31 3b 55 97 a6 bb ef 2d 0c bb
       0.018009635 0.0027033146 -0.005083958 -0.0021389683
000020 53 00 a1 bb 9a 2c 03 bc e8 93 ed ba 96 ad 5b 3b
       -0.0049133687 -0.008006239 -0.0018125745 0.0033520213
000030 11 c8 00 bc 9a 76 c5 3b c8 2b e8 3c f4 b2 cd 3b
       -0.0078602 0.0060261013 0.028341189 0.0062774364
000040 f9 ac 03 bc e8 1b f2 3b 0b 0f e0 bb 09 ef 1d 3c
       -0.008036845 0.0073885806 -0.0068377308 0.00963951
000050 c1 d0 f2 3b 51 bd 0a 3c 0c a3 2b 3b 9b fc d9 3b
       0.0074101393 0.008467988 0.0026189713 0.0066524274
000060 eb 28 03 3d d0 9c 60 3d fb 2a ff 3a 80 dc c1 bb
       0.032021444 0.054837048 0.0019467765 -0.005916178
000070 5b 9e 88 bb e7 2a d6 39 08 c2 a3 39 43 e9 c2 3b
       -0.004169268 0.00040849225 0.00031234347 0.005948217
000080 ef bf 42 3d 21 74 8a bb f1 5d 39 3b 73 8f aa 3c
       0.047546323 -0.0042252694 0.0028284753 0.020820355
000090 77 f4 e7 ba 2a 48 e4 bb 15 78 39 3a 57 ef 46 3b
       -0.0017696758 -0.0069666104 0.00070750836 0.003035506
0000a0 3c 8e ec 3b 7c 43 ed 3b 05 d6 da bb 7c 60 04 ba
       0.007219104 0.007240711 -0.006678345 -0.00050497777
0000b0 78 e6 39 3c da 15 e1 ba b0 c3 a0 3c f2 70 49 3b
       0.011346452 -0.001717265 0.019624561 0.0030737487
0000c0 61 71 14 3c f6 fa 04 3b c1 0b 87 bb 3f d3 b4 3c
       0.009060235 0.0020291186 -0.004121274 0.022073386
0000d0 07 ae f6 bc 1c 94 82 3c f9 b3 c4 3c 2b 18 af 3b
       -0.03011228 0.015939765 0.024011599 0.005343457
0000e0 5e f0 19 bc 4d e4 29 bd 2d eb 09 bc 5a e8 76 bc
       -0.009395687 -0.04147749 -0.008417887 -0.015070045
0000f0 ad 66 c3 bb db f7 16 3c 30 7d 0e bc 89 16 82 3c
       -0.0059631676 0.009214367 -0.008696839 0.015879886
000100 4a 1f 54 3c 60 86 23 3c 56 99 19 bc 78 2b c9 3b
       0.012946913 0.009980768 -0.009374937 0.006139215
000110 10 d2 1b bc b0 ac 88 3c 1b 2e d0 3b 5f 2d 56 bc
       -0.009510532 0.016683906 0.0063531525 -0.013072341
000120 17 5a 0e 3c b1 5c dc 3c 65 cb 07 3d 32 a2 86 3d
       0.008688471 0.026899667 0.033152957 0.06573905
000130 a7 cb 71 bb ee bc 9a bc 56 4d 68 3c 34 2d 02 3c
       -0.0036895068 -0.018888917 0.014178595 0.007945348
000140 d5 70 54 3c ef 8e a3 3c 56 a2 64 3d 3e af b0 bb
       0.012966354 0.019965617 0.055818878 -0.0053919842
000150 70 54 44 3c cb e3 c7 3c c5 cc 38 bb 84 a6 cf bb
       0.011983022 0.024400612 -0.0028198224 -0.006336989
000160 df 51 08 3b f0 b2 40 3b 16 d2 a2 3c 8e a3 c3 3c
       0.0020800752 0.002940353 0.019875567 0.0238817
000170 ac 8f 03 bc d2 70 ed ba d0 21 c7 bb bb f9 1d 3b
       -0.0080298595 -0.0018115288 -0.006077029 0.002410515
000180 13 a1 65 3c d0 49 cf 3b 41 38 2e 3c 1b b4 f2 3b
       0.014015454 0.006325938 0.010633529 0.007406724
000190 d6 15 81 bc 2d fe f3 bc 3e da 48 bd a8 f8 34 3c
       -0.015757482 -0.029784286 -0.049036257 0.011045612
0001a0 67 55 11 3c 77 34 e5 b9 f6 05 54 39 79 99 a5 3c
       0.008870459 -0.00043717373 0.00020220116 0.020214783
0001b0 b2 d6 94 bb d9 32 41 bc cd ba 0d 3b 45 50 8a 3c
       -0.0045421952 -0.011791908 0.0021626235 0.016883979
0001c0 81 7a 86 3b 83 17 cc bb 51 d7 64 3c 28 8e 1a 3b
       0.004103959 -0.0062283888 0.013967351 0.0023583267
0001d0 41 1a 09 3c b2 3c 7f 3c 08 f1 01 ba 8a 54 82 bc
       0.008368076 0.015578436 -0.0004956876 -0.015909452
0001e0 ff 36 d8 bb ec fc db bc 07 3e 05 bc 4e d1 83 3b
       -0.006598353 -0.026854001 -0.008132464 0.004022754
0001f0 ce d5 bb 3c 74 10 c0 3a 5a c9 c9 bb 1a 69 85 bc
       0.022929098 0.0014653341 -0.006158036 -0.016285468
000200 fb 53 1b 3c e8 d9 1c bb b4 41 98 bc 5a 7a a5 bc
       0.009480472 -0.0023933593 -0.018586017 -0.020199943
000210 21 c1 d7 3c eb 7b 3f 3c 86 64 6a bc 22 48 ff 3a
       0.026337208 0.011687259 -0.014306193 0.0019476453
000220 ce 75 32 3c a2 e7 3e bc 7a 58 85 3c be c1 96 3b
       0.010892345 -0.011651905 0.01627754 0.0046007326
000230 13 11 59 3c 7a 5d 3a bc 01 b2 8d 3b 5f 7c 1a 3c
       0.0132487 -0.011374826 0.0043241982 0.009429066
000240 fc 0c 42 3c 0e 4a 8d bb be 5f 51 bc e6 f8 f2 bb
       0.011843916 -0.0043118065 -0.012779174 -0.007414925
000250 1b 73 2f 3c 7f 85 8e bb eb e5 9b bb 29 df a3 3c
       0.010708596 -0.00434941 -0.004757633 0.020003872
000260 4d 13 fb 3b 08 cb 94 3c b8 88 af 3c c0 3f 53 3a
       0.007662213 0.01816322 0.021427497 0.0008058511
000270 85 4f b2 bb fa 5b 62 bb 9d d4 f9 ba d3 b5 e3 bb
       -0.0054416084 -0.0034539686 -0.0019060556 -0.0069491654
000280 2c a5 d7 bb bf 8c 0d 3c c5 4f d4 bb 9a 07 89 3c
       -0.0065809693 0.0086395135 -0.006479236 0.016727258
000290 44 2f 0e 3d 4c be 0e 3d 17 33 0e bc dd 0d b5 3c
       0.034713045 0.03484945 -0.008679173 0.022101337
0002a0 0d 15 f1 bb 4a ee b8 3c 70 f7 94 bb 14 5a 27 3c
       -0.007357246 0.022574563 -0.0045460984 0.010214347
0002b0 a6 c3 16 3c 60 e9 92 3b ab 8d 8f 3d d4 b1 9a 3d
       0.00920192 0.004483387 0.07009443 0.07553449
0002c0 da 8d ad ba 7d 83 09 bc dd f0 44 3d ab 1e da 3c
       -0.0013241128 -0.008393166 0.048081268 0.026625952
0002d0 9d b1 ad 3c a2 e6 bd 3c 3f 0c 5e 3d 5f 27 42 bb
       0.021202857 0.023181263 0.054210898 -0.0029625518
0002e0 ef 10 a2 3a 39 6a b2 3c db 9e f8 ba 67 d9 fa bb
       0.0012364666 0.021779167 -0.0018968241 -0.007655311
0002f0 7c a4 06 bc 71 e2 a5 3a 9d 0c c1 3c 7d fb 5b 3c
       -0.008217927 0.0012655986 0.023565585 0.013426659
000300 8b 6f e2 bb 8e e6 2c ba 2b ca 5b 3c 87 69 04 ba
       -0.0069102696 -0.00065956346 0.0134149 -0.0005051125
000310 af 5a c3 3c 01 0c 97 bb 93 02 54 3c ed ed 71 3c
       0.023846952 -0.0046095853 0.012940067 0.014766199

lstm.weight_ih_l1 f4 [200, 50]
000000 d0 52 c3 3d 34 56 c7 bc 2e d9 1c 3d 7f 27 eb 3d
       0.095372796 -0.024333097 0.038293056 0.11482143
000010 39 b1 ba bd c6 1c d6 3d da a8 ff 3d f4 83 17 bd
       -0.09115834 0.10454707 0.12483378 -0.036991075
000020 b2 3f fa 3d 10 76 f7 bc 8a e1 28 bc 81 99 ca 3d
       0.1221918 -0.030207664 -0.010307679 0.0989256
000030 1f 5d 14 3d 98 09 c7 3d 89 b1 b8 3d ea d7 6d 3d
       0.03622162 0.09718627 0.09018237 0.05806724
000040 f7 eb 82 be 83 13 99 3d 47 54 c8 3c 95 a9 ed 3c
       -0.25570652 0.07474425 0.02445425 0.029011527
000050 7a 8a 36 3d 7d 7e 59 bc a8 8b 00 3e 8b fc 74 bd
       0.044565655 -0.013274786 0.12553275 -0.059811156
000060 cd 30 9d 3b 6a 57 b8 3d a7 24 2b 3e 91 65 95 bd
       0.0047970773 0.09001048 0.167132 -0.07294763
000070 d2 a1 a2 3d 72 fc e7 bd 81 21 cf bc b3 64 4a 3d
       0.07941021 -0.11327447 -0.02528453 0.04941244
000080 3b 80 8e 3c 26 22 67 be c1 df f0 bd 23 a5 38 bd
       0.01739513 -0.2257162 -0.11761428 -0.04507936
000090 ee 90 a4 3d e1 40 04 bb 25 e1 3e be 60 a0 81 3e
       0.08035456 -0.0020180272 -0.18640573 0.2531767
0000a0 9a 37 f3 3d 34 f9 c2 bc 89 f8 95 3d d1 a3 2d 3d
       0.118758395 -0.02380047 0.07322795 0.042392556
0000b0 88 17 27 bd 78 a2 ff bc cf bc 2d be e8 10 3e bd
       -0.040793926 -0.0312054 -0.16966556 -0.04640284
0000c0 ce 81 a7 bd 68 4d 50 3d 1d 14 80 bd 7a 15 32 be
       -0.08179055 0.05085507 -0.06253836 -0.17391005
0000d0 7c 33 2a 3d 00 5f 34 3d e6 b6 3c be 17 55 03 be
       0.041553006 0.04403591 -0.18429145 -0.12825428
0000e0 f0 36 c9 3d c5 d8 08 3c 60 63 46 3d 46 49 fa 3c
       0.098249316 0.008352463 0.048434615 0.030552518
0000f0 44 45 0e 3e 28 23 31 3d 62 42 2b 3d ec 19 f9 3c
       0.1389361 0.04324642 0.041811354 0.030407868
000100 74 ad d4 bc b3 7e f6 3d 23 e7 14 3d da 21 50 bd
       -0.025961615 0.12035885 0.03635324 -0.050813533
000110 fa bb a5 3c aa 75 43 3d f0 f3 c6 3c 05 8b 5a bd
       0.020231236 0.047719635 0.02428624 -0.053355236
000120 9d 54 2a 3d 7a 2d b5 bd 1d 5b bd bb ba eb 92 3d
       0.0415846 -0.088465646 -0.005778684 0.071738675
000130 63 33 12 3e aa 9b 8d bd 84 7f c5 bd 35 c5 2c bd
       0.14277415 -0.06914456 -0.09643462 -0.04218026
000140 35 53 36 bc b8 17 50 3e 5a ae a1 bc cf b9 7a ba
       -0.011128237 0.20321548 -0.019736458 -0.0009564431
000150 c6 0e 64 3d 48 4c ed bd be 6e 3f 3b 29 43 05 be
       0.05567815 -0.11586815 0.0029210295 -0.13013901
000160 49 0d b9 bd 8f e0 b2 bd bd c4 f2 bc 4f 8b bc bd
       -0.09035737 -0.087342374 -0.029634828 -0.092062585
000170 8d 86 c3 3c ae a8 83 3d 5e b4 4a bd b0 86 66 3d
       0.02386787 0.064286575 -0.049488418 0.05628079
000180 a1 f4 ca 3d 56 07 c0 3c 73 c9 2a be 25 97 8a 3d
       0.099099405 0.023440998 -0.1667841 0.0676711
000190 80 e2 9d 3c 31 dc 5f be bc 30 cd 3c aa c0 6e 3d
       0.019273043 -0.2186134 0.025047652 0.058289208
0001a0 93 0f e3 3d 71 a7 15 3d 7c 60 28 3d 31 69 34 3d
       0.11086955 0.036536638 0.04110764 0.04404563
0001b0 9c 43 22 bd 9e 70 62 bd 03 c3 87 bd 15 c6 19 3e
       -0.03961526 -0.05528318 -0.066289924 0.15016969
0001c0 6a b6 4d bd 6b af 05 3e 41 8b 7f bc a1 d0 c6 3c
       -0.05022279 0.13055198 -0.015597166 0.024269404
0001d0 58 12 af 3b a4 98 74 bc a5 8a 08 bd 15 0b 80 be
       0.005342763 -0.0149289705 -0.033335347 -0.25008455
0001e0 ab 99 5a 3e 91 8b 0d be ac e8 e0 bc da 72 a0 3d
       0.21347682 -0.13822772 -0.027454697 0.07834406
0001f0 20 42 30 bd 42 20 08 3e d7 72 54 3d ce f6 b3 bd
       -0.04303181 0.13293555 0.051867332 -0.08787309
000200 d0 21 a9 bd dc 38 2e bd c8 71 30 3d e6 34 43 3d
       -0.08258402 -0.042534694 0.04307726 0.04765787
000210 eb 94 ae 3b 4f 7e b5 3c e2 7d 2b bb d9 85 fd bc
       0.005327811 0.022154955 -0.0026167561 -0.030947613
000220 72 e6 3a bd ae d3 dc 3d ab 60 06 3d 5a 14 19 be
       -0.045629926 0.10782562 0.032807034 -0.1494917
000230 af e8 8f bd aa ba e8 3d 8d c3 53 3c 2e c4 61 bd
       -0.07026803 0.11363728 0.012925041 -0.055118732
000240 c5 72 cf 3d 22 b2 ba bd 64 98 75 3d 41 87 6f 3e
       0.101293124 -0.091160074 0.059959784 0.23391439
000250 73 8d 97 bd 62 05 63 bd c8 8e 3b 3d ba 7f ba 3d
       -0.07400026 -0.055425055 0.045790464 0.09106393
000260 d5 04 80 be 49 5a 25 3d cd ed a0 3d b5 2b 00 bc
       -0.25003687 0.040369306 0.07857857 -0.007822921
000270 53 61 6c 3c 63 d5 22 bd 21 7a 4b bb 88 40 ad bc
       0.014427501 -0.039754283 -0.0031048136 -0.021148935
000280 2e 0c 4d 3c f0 db b1 bd 6c ba a9 bc 62 e9 75 3c
       0.012515111 -0.08684528 -0.020718776 0.015009256
000290 b9 e5 96 bd 8e 18 e1 3c f2 b3 73 be ba fb 8d 3d
       -0.07368035 0.027477529 -0.23799112 0.06932779
0002a0 d9 7f 48 3d 85 4c a7 bc aa 20 96 3d 67 46 bb bd
       0.04895005 -0.02042223 0.07330449 -0.091442876
0002b0 f8 91 c2 bd b5 ba 20 3d a7 b1 09 bd 82 0a 53 3e
       -0.095004976 0.039240558 -0.033616688 0.20609477
0002c0 c0 ae ac 3d aa 6a 2f bd d7 92 a3 3d 11 09 3f 3e
       0.084317684 -0.042826332 0.07986992 0.18655802
0002d0 8a 06 c6 3d b0 58 12 bc 12 72 c4 3d 94 28 6c bd
       0.09669216 -0.008932278 0.0959207 -0.057655886
0002e0 7d 99 85 3d 5b 8e bb bc 22 65 12 3d fd 93 e6 3c
       0.06523416 -0.022895029 0.03574098 0.028146738
0002f0 0d 40 a5 bc dc 6c ac 3d 43 c0 78 bd b8 7f a7 bb
       -0.020172143 0.08419201 -0.06073023 -0.005111661
000300 77 1b 91 bd 66 ee 18 bd 93 5d 2f bd 9f ef c7 bd
       -0.07085317 -0.03733673 -0.04281385 -0.09762501
000310 72 10 e3 3d 1f 4b 30 3e 86 dc 51 3d 91 c5 c4 bd
       0.11087121 0.17216156 0.0512357 -0.09607995
000320 81 80 eb 3c 42 88 e3 3d bd ef 02 3d 1d 90 fb bc
       0.028747799 0.111099735 0.031966913 -0.030708367
000330 16 af e3 bc ab 66 38 be 66 6a e4 3b 1b 5d 83 bd
       -0.027793448 -0.18007915 0.0069706915 -0.06414243
000340 bc d0 97 bc b0 89 b7 3c 1b d0 e8 3d 40 3a 99 bd
       -0.01853215 0.022404522 0.11367818 -0.074818134
000350 bc 0e 95 bc aa 25 15 3d 2e 40 3d be ea aa a3 3c
       -0.018195502 0.036412872 -0.18481514 0.01997896
000360 2f e5 29 3c 17 95 0f bb e8 58 fd 3c e9 79 5d bd
       0.010369583 -0.0021908933 0.030926183 -0.05407134
000370 17 62 e4 3d 69 12 79 bc ae 3e e9 bd 75 06 20 bd
       0.11151522 -0.015202143 -0.11388908 -0.039068658
000380 c3 4a 15 bc 11 59 bc bd 67 bb 93 bd 6d 15 f8 bd
       -0.009112063 -0.091966756 -0.072134785 -0.12113462
000390 50 4b 9d 3d 75 28 76 bd c1 49 ef bc 7b 51 18 be
       0.0768038 -0.060097177 -0.029209973 -0.14874832
0003a0 e9 f7 29 3d 33 7a 5b bd b8 c7 8b bd 48 86 92 3d
       0.04149619 -0.053583335 -0.06825203 0.07154518
0003b0 b0 13 e4 bc b6 3a 24 3c 4d ef a6 bb d5 eb 83 3d
       -0.027841419 0.010023763 -0.005094445 0.06441466
0003c0 56 89 1e 3e d8 57 48 bc de ed 4a bd 44 7a 40 bc
       0.15482077 -0.012227975 -0.049543254 -0.0117479
0003d0 57 4d 27 3d 4c 22 06 3e f5 6c 10 be 59 2a 61 3a
       0.04084524 0.1309902 -0.14104064 0.0008589379
0003e0 63 41 2b 3d 76 bf 89 3c 85 2d 83 3d 78 e0 38 bd
       0.041810405 0.016814929 0.064051665 -0.045135945
0003f0 d2 d5 fe 3c 2a f4 3a 3e c5 c0 a8 bc ba ba 58 bd
       0.031107817 0.18257204 -0.020599732 -0.05291245

lstm.weight_hh_l1 f4 [200, 50]
000000 e3 3f c9 3d ab 38 02 3e f3 75 12 be 42 17 ce ba
       0.098266385 0.1271693 -0.14302807 -0.0015723484
000010 18 5a 18 be a1 d2 12 be bb ea e0 bd 98 fb 1c 3e
       -0.14878118 -0.14338161 -0.10982271 0.1533035
000020 9d 9c 92 3d 90 f9 8a bc fb 53 1f bc a3 69 91 3d
       0.07158778 -0.016964704 -0.009724612 0.07100227
000030 79 b9 2a 3d 9c 1f 3e 3d c1 3e 43 bd 7b 9e a9 3d
       0.041680787 0.046416864 -0.04766727 0.08282181
000040 e7 d1 6b 3e 06 92 1a be 2e de 40 3d e9 bc 34 3d
       0.2302929 -0.15094766 0.047086887 0.04412547
000050 18 77 9d bd 5c 06 6b bd 41 d8 1f bd 5e 72 28 3d
       -0.07688731 -0.05737911 -0.039024595 0.041124694
000060 3b d1 7d 3d fe 39 9b bd 35 df 7e 3d 3a 85 47 3d
       0.061967116 -0.075794205 0.062224586 0.04871104
000070 46 9a 02 bd 28 27 87 bc b5 d7 8a bd 97 e1 0d be
       -0.031885408 -0.016498163 -0.06779424 -0.13855587
000080 94 6f 56 bb 15 9b 91 bd 12 fc 99 bd 12 91 1c 3e
       -0.0032720314 -0.07109658 -0.07518782 0.15289715
000090 91 f1 eb bb dd d4 ee 3d 7d 6c e9 bd 5d 1a 88 bb
       -0.007200428 0.11661694 -0.113976456 -0.0041535334
0000a0 b5 7d 84 bd b2 da c4 bb db b9 fa 3c 8a 91 71 3a
       -0.06469289 -0.006007516 0.0306062 0.00092151074
0000b0 e6 94 b6 3b 0e 54 8e bd 8f fc 42 3d 43 f6 90 3d
       0.0055719493 -0.06949626 0.04760414 0.07078221
0000c0 44 98 49 3d a5 00 b5 3d 0c 3d 32 be e6 7e 82 3d
       0.049217477 0.088380136 -0.174061 0.0637186
0000d0 c5 ea 25 3d 64 ca 18 3e 6c 55 43 3d 52 d2 28 3a
       0.040507097 0.14920956 0.047688887 0.00064400316
0000e0 0e b9 a3 3d a4 00 ef bc 6b 86 84 bd b7 15 05 3e
       0.07994281 -0.02917511 -0.06470951 0.12996565
0000f0 d2 1f f3 bc 56 25 91 bd 97 ac e0 3d 10 3c 13 3e
       -0.029678259 -0.070871994 0.10970419 0.14378381
000100 45 a0 e2 bd 91 53 9c 3d 09 89 98 bd fe d0 d8 3d
       -0.11065725 0.076331265 -0.074480124 0.10586737
000110 c0 5e 2b bd f5 dc 01 3d 7b 13 fc 3d cd 5e 5a 3e
       -0.041838408 0.03170486 0.12308403 0.21325226
000120 0e da 8b 3d de f8 98 bd ac d0 a9 3d 00 b2 ff bc
       0.068287 -0.07469343 0.08291754 -0.031212807
000130 03 3a 1f 3d ce 08 2f be b6 9b 15 be c8 be 4d 3d
       0.038873684 -0.17093202 -0.1461018 0.05023077
000140 14 3a 0c 3e c4 cd be bd 91 82 2c 3b 3a 1e c5 bc
       0.1369403 -0.093165904 0.002632294 -0.024062265
000150 73 55 a4 3c 66 7c 19 3e 03 01 30 bc 4c e9 30 be
       0.020060277 0.1498886 -0.010742429 -0.17276496
000160 fc c7 0e 3e e8 39 97 3d 14 86 cc 3c 5a 14 61 bc
       0.13943475 0.073840916 0.024966277 -0.013737762
000170 63 9f 03 bc bf 8f 4e 3d c3 90 47 3d 85 95 d3 3d
       -0.008033606 0.050430056 0.04872204 0.10331253
000180 82 a0 cf bd a6 aa 1a 3d 06 b2 78 bd 9b 0a 75 3c
       -0.10138036 0.0377604 -0.06071665 0.014956142
000190 a5 3e d3 3d 26 29 15 3e e3 9b 3a bd bd b9 89 bc
       0.10314683 0.14566478 -0.04555882 -0.0168122
0001a0 79 0f 1e 3d 3b 3b 3f bd 3d 34 76 38 b6 3b 12 3b
       0.038588975 -0.046687346 5.869962e-05 0.0022313423
0001b0 97 c0 22 be 45 7e 3d be 43 86 c8 3d 66 8b 2b bc
       -0.1589378 -0.18505199 0.097912334 -0.010470247
0001c0 76 00 ae 3c 7a 81 08 bc 1f df e7 bc f0 9d 8d bd
       0.021240454 -0.008331651 -0.028304635 -0.0691489
0001d0 17 b7 9d 3d 6d 6c c3 3b 9d 5f cc bd 43 4a aa 3d
       0.07700937 0.005963853 -0.09979174 0.083149455
0001e0 b9 1b 17 3e 76 c5 86 3d 4f 05 19 3e be 40 cd 3d
       0.14756669 0.065806314 0.14943431 0.10022114
0001f0 86 c6 53 3d 26 0b a1 bc 52 58 1e 3d da 43 da bd
       0.051703 -0.019658636 0.038658448 -0.10657473
000200 8b 60 d7 3b 24 0b 4a bd 64 85 0b 3e 9e 4f 36 be
       0.006572788 -0.04932703 0.13625103 -0.17803809
000210 87 77 1e bd b2 aa 1d 3d a6 57 c2 bd 9c 4d c1 3d
       -0.03868821 0.038492866 -0.09489374 0.09438631
000220 ba 85 e2 bd a4 ab 70 3d 63 74 21 bd b5 1a 74 3e
       -0.110606626 0.05875744 -0.039417636 0.23838313
000230 a1 49 47 be 0f 8f ec 3c e2 48 ff bd 82 44 91 bd
       -0.19461681 0.02887681 -0.12465073 -0.07093145
000240 27 4a 52 3d 12 6b 86 bd 07 75 04 3d d3 b8 70 3d
       0.05134025 -0.06563391 0.03233817 0.058770012
000250 b0 d0 0f 3d e1 da aa bc 58 b5 93 3d 5b 44 8e 3c
       0.03511113 -0.020856323 0.07212323 0.017366579
000260 f2 41 9a bd 7c 49 0e be 79 f1 e3 bd 4c a6 95 3c
       -0.07532109 -0.1389522 -0.11130042 0.018267773
000270 db fc 8d bd 80 29 26 be 54 81 17 be e5 e7 95 3d
       -0.06932994 -0.16226768 -0.14795429 0.07319621
000280 89 f5 6b 3c e8 41 4d bd 27 bf 28 3e c8 09 07 be
       0.014401802 -0.05011168 0.16479169 -0.13187325
000290 11 c6 71 3d 43 b6 c7 3d e8 f5 18 3d 41 52 d1 bc
       0.05902678 0.097515605 0.03734389 -0.025551917
0002a0 92 de f7 bc 85 37 21 bc 4a 10 8a 3d a9 60 69 bd
       -0.030257497 -0.009839897 0.06741388 -0.056976948
0002b0 39 a2 76 3d 51 6a 71 3d 48 a1 b9 3c ce aa 82 3c
       0.0602133 0.05893928 0.022659913 0.015950587
0002c0 44 a7 2b 3d 31 12 e6 bd 67 5c ee bd 78 9b d2 bd
       0.041907564 -0.112339385 -0.11638718 -0.102835596
0002d0 b6 cf 8c bd c5 61 77 3c 6b c4 06 3e 32 19 69 3d
       -0.06875555 0.015098994 0.13160865 0.056908794
0002e0 0d 19 23 bd b8 6d 0a be 32 7c a3 bd 81 7b 9b 3c
       -0.039818812 -0.13518417 -0.07982673 0.01897979
0002f0 3a 27 4e bd 6b 66 8e bd 2f df 44 3d dc 50 f0 bd
       -0.050330378 -0.069531284 0.048064407 -0.11734173
000300 e9 7e 97 bd a3 74 46 be d6 21 59 be f9 de 34 bd
       -0.07397253 -0.19380431 -0.21204314 -0.044157956
000310 f0 ac 1a be b7 29 2c 3e fe 8b 5c bd 80 3b 3b 3a
       -0.15105033 0.16812788 -0.053844444 0.000714235
000320 df 47 8b 3d 21 25 0f be a2 5f 27 be cd 21 8c 3c
       0.06800818 -0.13979007 -0.16345075 0.017105961
000330 8d df 75 39 1d 45 f2 3b 14 2d 12 3d 56 46 29 bd
       0.000234483 0.007393493 0.03568752 -0.041326843
000340 9f 0c a6 bd b0 02 88 3d 35 40 e0 bb 28 7c a8 bd
       -0.08107876 0.066411376 -0.0068435916 -0.08226806
000350 19 9d 2c 3e 44 71 62 3d a4 4e 28 3e 42 df b9 bc
       0.16856803 0.0552838 0.16436249 -0.022689465
000360 77 f1 2c be 05 f4 69 bd 52 1a aa bc b2 82 1b 3d
       -0.16888987 -0.05711748 -0.020764504 0.037966438
000370 7e 61 29 bd f2 1d ea bc f2 36 02 be e3 e2 f8 bd
       -0.04135274 -0.028578732 -0.12716272 -0.1215265
000380 9b d2 a0 3d 14 4c 32 bd 2c 8a 6b bd 73 0e 41 bd
       0.0785267 -0.043529585 -0.057504818 -0.04713292
000390 3a e5 a6 bc 76 9b 8f 3d ae 9e c2 bd f6 77 70 3d
       -0.020372976 0.07012074 -0.09502922 0.058708154
0003a0 ef 9c 5f bd 93 6a 9b bd ed ce 1a be 99 ae 04 3e
       -0.054593023 -0.07588687 -0.15117998 0.12957229
0003b0 ce 72 49 3d e4 32 07 3d 9d 73 0a bd a8 f5 b6 bd
       0.049181752 0.033007517 -0.033801664 -0.08933574
0003c0 1e 92 02 be a3 70 26 bd 6d 68 2c 3d 91 49 ec 3c
       -0.12751052 -0.040634762 0.042091776 0.028843673
0003d0 b7 be 78 3c 08 99 36 3e 21 68 59 be 3d bf 22 3d
       0.015182189 0.17831814 -0.21231128 0.03973316
0003e0 f2 b5 52 3d 4b 68 32 be d3 9a f3 3c 27 b2 eb bd
       0.051443048 -0.17422597 0.029736912 -0.11508589
0003f0 a2 ad 9a 3d f9 52 3e 3d 3a 9f 28 3e 08 99 3a bd
       0.07552649 0.046465848 0.1646699 -0.0455561

lstm.bias_ih_l1 f4 [200]
000000 b4 c7 33 3c 7d 33 88 bc 10 6c 2d bc 8d 36 17 3c
       0.010972906 -0.016626114 -0.010584846 0.0092293145
000010 61 15 1c 3c 6d 21 1b 3b de e8 cb bb e0 d9 88 bc
       0.0095265815 0.0023671046 -0.0062228283 -0.016705453
000020 22 12 02 3d f5 33 3b 3c 87 39 a0 38 d1 a8 36 3c
       0.031755574 0.011425962 7.64011e-05 0.011148647
000030 ad 0f 91 3c 71 7b f0 3b 7c 34 81 bc 9a 43 8a 36
       0.01770767 0.007338934 -0.015772097 4.1205903e-06
000040 ce 86 2a bc e5 59 51 3c e6 6e 9c 3c 17 fb 66 3c
       -0.0104081165 0.01277778 0.01909585 0.01409795
000050 be 94 c1 3b 71 cf 98 3b 9e e1 a2 3c 81 fd 0a 3b
       0.005907624 0.004663401 0.019882973 0.002120823
000060 78 ff d5 bb 8b c5 10 3b 3a 87 18 bd d0 c5 3d b9
       -0.0065306984 0.00220904 -0.037238337 -0.00018098135
000070 47 ce 89 3c 01 24 79 bb 6b 26 9e 3c 74 50 72 bb
       0.016821994 -0.0038015845 0.019305428 -0.0036974223
000080 f4 e0 bb ba ed ee 9b 3c 20 63 cc b9 12 97 28 3c
       -0.0014334009 0.019034827 -0.00038983766 0.010289924
000090 1a 6c 31 3c a4 68 45 bc 33 f7 d1 3c bb a9 fa bb
       0.010828996 -0.012048874 0.02563057 -0.007649628
0000a0 75 23 8b bb 7a 25 e6 3a 0d c5 eb 3b 92 c7 73 b9
       -0.00424617 0.0017558776 0.007195121 -0.00023248632
0000b0 36 74 fb bb 45 f7 40 bb a3 e1 a2 ba d9 21 10 3c
       -0.0076737655 -0.002944426 -0.0012426864 0.008797132
0000c0 ba 1c 9a 3b 88 52 ad bb 3f 22 71 3c 16 79 69 bc
       0.0047031315 -0.0052893795 0.014717638 -0.014250061
0000d0 0e fa 84 bc 4d e8 1d 3c 39 6a 55 3c 87 a3 95 3b
       -0.016232517 0.009637904 0.013025814 0.004566613
0000e0 2f c2 e2 bc 6f ff 52 bc b9 dd 14 3d 85 4c f7 3b
       -0.027680485 -0.012878283 0.036344264 0.0075469636
0000f0 dd 1a 47 bb ae d2 61 3c 55 a1 be 3c 70 68 a2 3b
       -0.0030381002 0.01378314 0.023270288 0.0049562976
000100 88 1a 9b bc 46 8a 1f bb 2e 99 e2 bc d3 fd 60 3c
       -0.01893355 -0.0024343892 -0.027660932 0.013732391
000110 8c 31 ea 3c f4 13 86 3c f3 0e 99 3b b7 bf c6 3b
       0.028588079 0.016366936 0.0046709715 0.0060653347
000120 5b 26 f8 bc e3 e2 04 bd 8f a8 5d ba cd d4 3a 3b
       -0.030291727 -0.03244294 -0.0008455598 0.0028508187
000130 7a 4b 1c bd 3e f5 37 ba b8 b8 9e 3c e2 fe 9a ba
       -0.038157918 -0.000701744 0.01937519 -0.0011825229
000140 24 23 90 3c 6b b5 61 bb e3 6c 04 bb 03 60 22 bd
       0.017594881 -0.003444041 -0.0020206503 -0.039642345
000150 6f 2c 58 bb cf fb 0b 3c d0 f6 5f 3c ee ea a5 bc
       -0.003298547 0.008543923 0.0136696845 -0.020253625
000160 4e c9 e2 3c 0a 21 26 bc 32 0a bf bc 99 75 ee b8
       0.02768388 -0.010139713 -0.023320291 -0.000113706286
000170 68 91 44 3c 53 dc b2 bb 79 28 99 bc b2 1c f9 bb
       0.011997558 -0.0054583936 -0.018696057 -0.0076022977
000180 85 e5 86 3a 0f d6 59 3c 5a 3c 94 3b a6 c4 36 bc
       0.0010291791 0.013295664 0.004523796 -0.011155283
000190 53 2e 0c bc d4 f3 0e bc 42 cf e8 ba 1f 5f 70 3b
       -0.008555966 -0.008725125 -0.0017761963 0.003667779
0001a0 2e 2c ae bb d6 9c 0c 3b f2 58 ca 3b 5f 2f af ba
       -0.005315325 0.0021455786 0.006175154 -0.0013365558
0001b0 29 e1 9d 3c 67 09 37 bc 78 7f a8 3b 3f 7c 17 3c
       0.019272404 -0.011171675 0.0051421486 0.009245931
0001c0 8e 9f 79 3c 3f f6 ed bb 6d 8a 2b b9 e4 b4 23 bc
       0.015235795 -0.007262021 -0.00016359398 -0.009991858
0001d0 ec 85 a6 3a a1 dd 40 bc 49 1d 4e bc 62 da 56 3c
       0.0012704707 -0.01177159 -0.012580224 0.01311359
0001e0 4c 6f 0d bc c6 7f 3a bc 33 c4 8e ba 8d 23 e6 ba
       -0.008632492 -0.011383003 -0.0010892212 -0.0017558202
0001f0 e9 e7 a2 bb 80 e2 0b bc db e4 11 3b b1 b9 e0 3b
       -0.0049714935 -0.0085378885 0.0022261653 0.0068580736
000200 cb d7 9d 3c 02 88 49 3a e6 7c a3 bc a9 57 28 3b
       0.019267937 0.0007687808 -0.019957017 0.0025687015
000210 b1 93 cd 3b af 27 15 bc ef 7a c5 3c 85 2a 4c 3c
       0.0062737097 -0.0091037 0.02410647 0.012461309
000220 21 8d ff bb db 99 f8 ba b0 34 45 bc 86 af f4 bb
       -0.0077988063 -0.0018966751 -0.012036487 -0.007467213
000230 0a 99 8f bb d2 34 8c bb b5 57 1e bc f6 30 7b bc
       -0.0043822573 -0.0042787576 -0.009664466 -0.015331497
000240 71 ed 86 bb 97 ee 33 3c 05 5e 12 bc f4 77 db 3b
       -0.0041176607 0.010982177 -0.008933549 0.006697649
000250 10 b7 88 3c 20 a6 b3 3b 91 3a 9b 3c 5f ae 81 bc
       0.016688854 0.00548245 0.018948825 -0.015830217
000260 06 03 78 bc 19 84 df 3b ef 07 89 3c cd 35 96 ba
       -0.01513744 0.006821167 0.016727416 -0.0011460126
000270 23 ef 50 bc fb 30 77 bc d4 52 46 3d 34 a7 c0 3b
       -0.012752327 -0.015087361 0.048418835 0.005879307
000280 7a f2 0d bb 14 4c 39 3c 00 e3 ff 3c c7 e9 91 3a
       -0.002165942 0.011309642 0.031236172 0.0011132293
000290 72 ca a9 bc 1a 7c 0b bc 1e d4 5f bc c5 08 e5 3c
       -0.020726416 -0.008513475 -0.0136614125 0.027958283
0002a0 79 44 f4 3c 81 82 99 3c bf d4 6e 3b 0a 7d 8a 3b
       0.029817807 0.018738987 0.0036442725 0.0042263316
0002b0 ed 4c 8a 3c 37 fc 20 3a 22 02 1b bc ec b1 44 ba
       0.016882384 0.00061410986 -0.009460958 -0.0007503319
0002c0 ce 17 1a bd 28 e9 19 bb 9a 0f 98 3c c7 9d 42 bc
       -0.03762036 -0.002348492 0.018562127 -0.011878437
0002d0 97 e8 ef 3c 95 b3 81 bb 47 97 ef bb 40 42 a4 3c
       0.029285712 -0.0039581754 -0.007311735 0.020051122
0002e0 e9 e5 f1 ba f9 c8 28 3b c3 6b 50 3c 08 9b 86 bc
       -0.0018455359 0.0025754555 0.012721005 -0.016431347
0002f0 65 09 ea 3c cb 1e 12 bc ac 3f 47 3b 20 f2 7a bb
       0.028568933 -0.008918474 0.0030402942 -0.003829129
000300 53 87 6f 3b 06 dc d2 bb fb 3f 08 bc 36 9e 04 bc
       0.0036549165 -0.0064349202 -0.008316035 -0.008094361
000310 06 58 d8 bb 31 bf 65 3c 02 c0 b1 3a a2 08 14 bc
       -0.00660229 0.014022634 0.0013561251 -0.009035261
